checkpoints/aligned_histopathology_dataset/StainNet-Public_layer3_ch32.pth (torch, 7653 bytes, 6 tensors)

rgb_trans.0.weight f4 [32, 3, 1, 1]
0	0xbeda2ecd	-0.4261383
1	0xbf04994b	-0.51796407
2	0x3dc5a1d3	0.09650006
3	0x3ddd0527	0.10791998
4	0xbf12f088	-0.5739827
5	0x3ef96685	0.4871103
6	0xbebe037e	-0.3711204
7	0xbf0a4dc2	-0.540249
8	0xbde4a31a	-0.11163922
9	0xbe9644ef	-0.29349467
10	0x3f23d5c8	0.6399808
11	0x3dd3e78f	0.10346901
12	0x3e0b47b1	0.13601567
13	0x3b86902e	0.004106543
14	0xbdb03fe3	-0.086059354
15	0x3db56121	0.088564165
16	0x3f0285fe	0.50985706
17	0x3e2e0622	0.16994527
18	0xbef04d0c	-0.46933782
19	0x3ddf7f4f	0.10912954
20	0x3eb66659	0.3562496
21	0xbef352fb	-0.47524247
22	0xbdb3217d	-0.08746622
23	0x3ed64cb0	0.41855383
24	0x3e9aee89	0.30260113
25	0x3e48a942	0.19595817
26	0x3e879010	0.26477098
27	0xbef3a8e3	-0.47589788
28	0x3e85939d	0.26089182
29	0xbd87062a	-0.065929726
30	0x3d928fb5	0.07156316
31	0xbe90857c	-0.2822684
32	0x3eb3f4ec	0.35147798
33	0xbd885cad	-0.066583015
34	0x3e2e1b2c	0.17002553
35	0xbf47edb1	-0.78097063
36	0x3cc8d998	0.02451782
37	0xbe89e1cd	-0.26930085
38	0x3e65deda	0.22448292
39	0x3f108d7c	0.5646589
40	0xbe3db643	-0.18526559
41	0xbeb26530	-0.34842825
42	0xbe1232b0	-0.14277148
43	0x3f1616a4	0.58628297
44	0x3dfae7e3	0.1225126
45	0x3eda0da6	0.42588538
46	0xbf09b3b0	-0.53789806
47	0xbda560b0	-0.08075082
48	0x3f07fb4f	0.5311784
49	0xbf15bb5d	-0.5848902
50	0x3d15d81a	0.036583044
51	0x3e69b5ba	0.2282323
52	0x3e123637	0.14278494
53	0x3eeccc61	0.4624968
54	0x3da4d111	0.08047689
55	0xbee0aa9b	-0.43880162
56	0xbef7f43b	-0.4842852
57	0x3f4855d2	0.7825595
58	0xbee04e26	-0.43809623
59	0xbe93f74b	-0.28899607
60	0xbe78f7d8	-0.24313295
61	0x3ec6d04d	0.38830796
62	0xbed64d66	-0.41855925
63	0x3dbbc3c3	0.09168198
64	0xbedc990a	-0.4308551
65	0xbea2c8ae	-0.3179373
66	0xbeaecbb1	-0.3413978
67	0x3f07f180	0.53102875
68	0xbebe4162	-0.37159258
69	0xbf03bce2	-0.5146009
70	0xbea24886	-0.31695956
71	0xbe10c5fe	-0.14138028
72	0x3dbb4594	0.0914413
73	0x3d62c5cc	0.055364415
74	0x3ca9d230	0.020730108
75	0x3e7ac846	0.24490461
76	0x3e5d77b0	0.21627688
77	0xbe73b774	-0.2380045
78	0xbf06f8a4	-0.52723145
79	0xbf07cd39	-0.5304752
80	0xbf12c9f1	-0.5733939
81	0x3d2319d4	0.039819553
82	0xbebe2d39	-0.37143877
83	0x3eb2427a	0.34816343
84	0xbe4f407a	-0.2023944
85	0x3f1fbd32	0.62398064
86	0x3cf4a7b1	0.029865118
87	0xbe382509	-0.17982878
88	0x3e802e78	0.25035453
89	0xbe907993	-0.28217754
90	0x3ec12f3b	0.37731346
91	0x3f18c183	0.59670275
92	0x3e2f523b	0.17121212
93	0x3e97bf57	0.29638168
94	0xbdc149e9	-0.09437925
95	0x3e887ab5	0.26656118

rgb_trans.0.bias f4 [32]
0	0x3e77df5d	0.242063
1	0x3db63e50	0.08898604
2	0x3eeef23c	0.46669185
3	0x3e8e289d	0.2776536
4	0xbef6211d	-0.48072138
5	0xbf0b11ce	-0.5432404
6	0xbdd593f4	-0.104286104
7	0x3ea0fd45	0.3144323
8	0xbe8ef63b	-0.27922234
9	0xbdf499e1	-0.119434126
10	0x3da9483f	0.08265733
11	0x3f0a316d	0.5398167
12	0x3e909015	0.28234926
13	0x3dc9981a	0.09843464
14	0xbec1d99d	-0.37861338
15	0xbf0f0cef	-0.5587911
16	0xbca9ec57	-0.020742578
17	0xbf2a40d3	-0.66505164
18	0x3e345e06	0.17613992
19	0xbdb4316b	-0.08798488
20	0x3e7300a0	0.23730707
21	0xbe847744	-0.25872242
22	0x3e87e10a	0.2653888
23	0x3e77a844	0.24185282
24	0xbf08439b	-0.5322816
25	0x3e2ef460	0.17085409
26	0x3ef7b935	0.4838349
27	0xbf007a12	-0.50186265
28	0x3ec9e352	0.39431244
29	0x3e9057c5	0.28191963
30	0xbe86ad6f	-0.26304194
31	0x3e1dd1e3	0.15412097

rgb_trans.2.weight f4 [32, 32, 1, 1]
0	0xbdd4e627	-0.103954606
1	0x3c6b99ab	0.014379899
2	0x3db87cb2	0.09008159
3	0x3db90f4c	0.09036121
4	0x3e034504	0.12819296
5	0xbd706c8e	-0.058697276
6	0x3e346e28	0.17620146
7	0x3cecc56b	0.02890273
8	0x3d9c3771	0.07627762
9	0x3c0b1065	0.0084877955
10	0x3b553367	0.003253186
11	0xbda080a5	-0.07837037
12	0xbdc571f7	-0.09640878
13	0xbd8959c5	-0.06706575
14	0xbe0cc9b8	-0.13748825
15	0xbd367e0c	-0.0445538
16	0x3dc6f358	0.09714383
17	0xbe228dc6	-0.15874395
18	0xbe2060c6	-0.15661916
19	0xbd1024a7	-0.035191204
20	0x3d383391	0.044971053
21	0xbcd36254	-0.025803722
22	0x3de56d0d	0.112024404
23	0xbcb34a51	-0.021886023
24	0x3d111d23	0.035428178
25	0xbd11955a	-0.035542823
26	0xbe0424f4	-0.12904721
27	0x3cc04647	0.02347101
28	0xbd2a0452	-0.041508026
29	0xbe1e429d	-0.15455098
30	0xbe31ec2a	-0.17375246
31	0x3cb04242	0.02151597
32	0x3c8c4e0a	0.017127056
33	0xbe1758d2	-0.14779976
34	0x3b953b91	0.00455422
35	0xbcf47223	-0.02983958
36	0xbd6a11bb	-0.057145815
37	0x3d75826e	0.05993884
38	0x3d812f7e	0.063078865
39	0xbd481b20	-0.048853993
40	0xbdf65ea7	-0.12029772
41	0xbcad139f	-0.02112752
42	0xbe16cba1	-0.14726116
43	0x3dedf11a	0.11618252
44	0xbe0264b8	-0.12733734
45	0xbc1e9573	-0.009679186
46	0xbd8e1c0b	-0.069389425
47	0xbc1d3556	-0.009595236
48	0x3ce3bbb3	0.027799463
49	0x3cc2fc3f	0.023801921
50	0xbdac1f19	-0.08404369
51	0xbe0d52c2	-0.13801101
52	0x3d8e59b3	0.069507025
53	0xbd8838b5	-0.06651441
54	0x3e2d01f6	0.1689528
55	0xbe133e0f	-0.14379142
56	0xbe197ccf	-0.14989017
57	0x3d5b37d8	0.053520054
58	0xbdbd2c84	-0.09237006
59	0xbdd098d0	-0.10185397
60	0x3d93011d	0.07177947
61	0x3e058116	0.13037524
62	0xbd4e653e	-0.05038952
63	0x3c07508d	0.008258951
64	0xbe51d92d	-0.20493002
65	0xbe3cc2c9	-0.1843368
66	0xbdb39c10	-0.08770001
67	0x3e0f2e42	0.1398249
68	0xbd235a35	-0.03988095
69	0xbdc2b1b3	-0.0950655
70	0x3d87f823	0.06639125
71	0x3db174c1	0.08664847
72	0x3de23118	0.1104452
73	0xbe03649b	-0.12831347
74	0x3db45ede	0.08807157
75	0xbd2db079	-0.042404626
76	0x3d8c0c8a	0.06838329
77	0xbc52dbd6	-0.012869796
78	0x3933edea	0.000171594
79	0x3d9d9a47	0.07695442
80	0x3d78f2b9	0.060778353
81	0x3ca9557c	0.020670645
82	0xb7f21258	-2.885719e-05
83	0x3df5e1be	0.120059475
84	0x3d204131	0.03912467
85	0xbcbeb2b8	-0.02327858
86	0x3e758db5	0.23979838
87	0xbda653aa	-0.081214264
88	0x3d917eb2	0.07104243
89	0x3e6ee24b	0.23328511
90	0x3db0fdc1	0.0864215
91	0xbe256bc2	-0.16154388
92	0x3e6ed966	0.23325118
93	0xbd9a936e	-0.07547651
94	0x3eb009ec	0.3438257
95	0x3df28e25	0.11843518
96	0x3e4ff5a7	0.20308553
97	0xbcce2684	-0.02516485
98	0xbd922bc1	-0.07137252
99	0x3cdfcbf4	0.027318932
100	0xbbd09ff3	-0.0063667237
101	0xbe44a6e0	-0.19204283
102	0x3e2bb7e7	0.16769372
103	0x3d6e1bf7	0.058132138
104	0xbd9ef2c9	-0.07761151
105	0x3e0638cf	0.13107608
106	0x3e007055	0.12542851
107	0x3e70f9dd	0.23532815
108	0x3e1d598a	0.15366188
109	0x3e2c6240	0.16834354
110	0xbe99dc40	-0.3005085
111	0x3d6d0488	0.05786565
112	0x3e1a6191	0.15076281
113	0xbcc8415a	-0.024445225
114	0xbe0cabbf	-0.13737391
115	0x3dbd2344	0.09235242
116	0x3e39e7d1	0.18154837
117	0xbd7b4093	-0.06134088
118	0xbe15afad	-0.14617796
119	0xbd9b2ac1	-0.07576514
120	0xbd8c6e6d	-0.068569995
121	0xbe137ba9	-0.14402641
122	0x3e1a745f	0.15083455
123	0xbe171f78	-0.14758098
124	0xbcac2fa3	-0.021018809
125	0x3e47c188	0.1950742
126	0xbe0db80a	-0.13839737
127	0xbe45a875	-0.19302543
128	0x3cbf6462	0.023363296
129	0x3d421bef	0.04738992
130	0xbd62ea67	-0.055399325
131	0xbe242603	-0.16030125
132	0xbe31157b	-0.1729335
133	0xbdae7113	-0.08517661
134	0xbdbf1f75	-0.09332172
135	0xbe304d6a	-0.17217031
136	0xbe051fc1	-0.13000394
137	0xbdb4f57e	-0.088358864
138	0x3e02806d	0.12744303
139	0xbda2525c	-0.07925865
140	0xbc5a63bc	-0.013329443
141	0xbe13e886	-0.1444417
142	0x3da76df6	0.0817527
143	0xbe0de2fa	-0.13856116
144	0x3e577dfe	0.21044156
145	0x3dbedaab	0.09319051
146	0x3da776b4	0.08176938
147	0x3e482494	0.19545203
148	0xbc143dcf	-0.009047939
149	0xbe108f56	-0.14117178
150	0x3e15be5f	0.14623402
151	0xbdb1efa1	-0.08688284
152	0x3e06441e	0.13111922
153	0xbe13b090	-0.14422822
154	0x3de05d0a	0.10955246
155	0x3d7fa469	0.062412653
156	0xbdea7744	-0.11448529
157	0xbbb10a5e	-0.005402847
158	0xbdd10a39	-0.10207028
159	0x3e2edeb3	0.1707714
160	0xbe3cd05b	-0.18438856
161	0xbe93ce38	-0.2886827
162	0xbe00413d	-0.12524886
163	0xbe260163	-0.16211466
164	0xbd56807a	-0.05236862
165	0xbcaf529d	-0.021401698
166	0xbdca6664	-0.09882811
167	0xbdd64e02	-0.104640976
168	0x3c269da6	0.010169422
169	0x3da60c98	0.08107871
170	0xbe8572c3	-0.2606412
171	0x3e80fe09	0.25193813
172	0xbe51dde9	-0.20494808
173	0x3dd08237	0.101810865
174	0x3dfb0ce1	0.12258316
175	0x3d6cefe1	0.057845954
176	0xbc2e8812	-0.010652559
177	0xbe33fc20	-0.17576647
178	0x3e7b4b07	0.2454034
179	0x3e3a109d	0.181704
180	0x3e825599	0.2545593
181	0xbd93ad3e	-0.07210778
182	0xbd48826c	-0.048952505
183	0xbc82cf58	-0.01596801
184	0xbdd81ddb	-0.105525695
185	0x3d1870d1	0.037216965
186	0x3c56bb8f	0.013106241
187	0xbe1722f7	-0.14759432
188	0xbcc4ed9e	-0.024039086
189	0x3e3bd852	0.18344238
190	0x3d496d8a	0.04917673
191	0xbe4a14f9	-0.19734563
192	0xbdd15f8e	-0.10223304
193	0xbdcdc3f5	-0.100471415
194	0x3e21edc3	0.15813355
195	0xbe17b6d0	-0.14815831
196	0xbd73be43	-0.05950762
197	0x3a1f9272	0.00060871907
198	0xbd264a8a	-0.04059843
199	0xbe4125a1	-0.1886201
200	0x3e0cdd7c	0.13756365
201	0xbd132fe0	-0.03593433
202	0x3df7cde1	0.12099815
203	0x3e2e73b6	0.17036328
204	0xbd89eb82	-0.06734373
205	0x3de65101	0.11245919
206	0x3db543cf	0.08850824
207	0xbd8779e3	-0.06615045
208	0x3e7a2b83	0.24430661
209	0x3e5ea3bd	0.21742149
210	0xbb9d5f23	-0.004802601
211	0x3e9308db	0.28717694
212	0x3d0c242a	0.034214176
213	0xbdd1b15d	-0.102389075
214	0x3de50126	0.1118186
215	0x3df2965c	0.11845085
216	0xbe0975c7	-0.13423835
217	0x3deaa0ce	0.11456452
218	0xbcd0715c	-0.025444679
219	0xbdbb4fd1	-0.09146083
220	0x3d133e2e	0.03594797
221	0x3dd75be3	0.10515573
222	0x3e15eceb	0.14641158
223	0x3dfc381a	0.12315388
224	0xbd05ed1c	-0.03269683
225	0xbe29f0a9	-0.16595711
226	0xbdf4cbf9	-0.11952967
227	0xbdbd14c6	-0.09232478
228	0xbd69fd9a	-0.05712662
229	0x3e598af9	0.2124442
230	0x3dac30fb	0.0840778
231	0xbda3dc99	-0.0800106
232	0x3ceb9422	0.028757159
233	0xbe0ec17a	-0.13940993
234	0x3e0d5155	0.13800557
235	0x3e287d47	0.1645404
236	0xbe5774a8	-0.21040595
237	0xbd9ebab8	-0.077504575
238	0x3e664735	0.22488101
239	0xbca88a05	-0.020573625
240	0x3e1f57dc	0.1556086
241	0x3e0680b2	0.13135031
242	0xbd133aba	-0.035944678
243	0xbd768872	-0.06018872
244	0x3de32dc0	0.110927105
245	0xbe135a08	-0.14389813
246	0xbdce3cee	-0.10070215
247	0x3e285479	0.16438474
248	0xbd8dd290	-0.06924927
249	0x3d826391	0.06366647
250	0xbdde69b0	-0.10860002
251	0xbd6aab59	-0.057292316
252	0x3e27d12c	0.16388386
253	0x3df4d0a1	0.11953855
254	0x3dfd6207	0.12372213
255	0xbe478356	-0.19483694

rgb_trans.2.bias f4 [32]
0	0x3d6ac746	0.05731895
1	0x3db1392a	0.08653481
2	0xbc90d7eb	-0.017681083
3	0x3e441fc6	0.19152746
4	0xbdd28ff0	-0.1028136
5	0x3d942fae	0.07235657
6	0xbe6c23c4	-0.23060519
7	0xbd1ab3fc	-0.037769303
8	0x3a234c3b	0.0006229316
9	0x3e0db7c8	0.13839638
10	0x3d9af1f8	0.07565683
11	0xbc82a1ea	-0.015946347
12	0x3d442ab4	0.047892287
13	0x3e24dfab	0.16100948
14	0xbe5fc0d1	-0.21850897
15	0x3df3b8c6	0.11900477
16	0xbc8a8c94	-0.016912736
17	0x3e00c75b	0.12576048
18	0x3c8b7b64	0.01702661
19	0xbc81e240	-0.015854955
20	0x3e081c2e	0.13292
21	0xbc65c4d4	-0.014023978
22	0xbdceca7a	-0.10097213
23	0x3e08394d	0.13303109
24	0xbe1783b9	-0.14796342
25	0xbc96d90d	-0.018414045
26	0xbe065df7	-0.13121782
27	0x3aadd809	0.0013263236
28	0xbd5248ea	-0.051339068
29	0x3d0c232c	0.03421323
30	0x3e8e3a27	0.27778742
31	0xbe0f6baf	-0.14005922

rgb_trans.4.weight f4 [3, 32, 1, 1]
0	0x3b04719a	0.0020209313
1	0x3d927b4b	0.071524225
2	0x3ebc7a2b	0.36811957
3	0xbd81806a	-0.06323321
4	0xbe0fa4c1	-0.14027692
5	0x3db2dedc	0.08733913
6	0x3ed32819	0.4124153
7	0x3e10a0bd	0.14123817
8	0x3da080ba	0.07837053
9	0xbdad175c	-0.08451721
10	0x3e2209ed	0.15824099
11	0x3d14d363	0.036334407
12	0x3e0340fe	0.12817761
13	0xbd52ecff	-0.05149555
14	0xbe23c147	-0.15991698
15	0xbc83fc8c	-0.016111635
16	0xbdc18cd7	-0.09450691
17	0x3e684e43	0.22686104
18	0x3d84c6e6	0.06483249
19	0x3e506f35	0.20354922
20	0xbebb24df	-0.36551568
21	0x3e2d368c	0.16915339
22	0xbef3b299	-0.47597197
23	0x3d3c118e	0.04591518
24	0xbdb2e7b1	-0.08735598
25	0x3ddb49de	0.107074484
26	0x3d3ddf43	0.046355497
27	0xbe0e982b	-0.13925235
28	0x3e099d8f	0.1343901
29	0xba93518a	-0.001123951
30	0x3e125769	0.14291157
31	0xbdb1c990	-0.08681023
32	0x3d1b2b7c	0.037883267
33	0xbe99f151	-0.30066922
34	0x3e548191	0.2075255
35	0xbec5514b	-0.38538584
36	0xbdd292c7	-0.10281902
37	0x3d4648d5	0.0484093
38	0xbe1024d8	-0.14076555
39	0xbe7d8aea	-0.24760023
40	0x3d4becf2	0.049786516
41	0xbead7384	-0.33877194
42	0x3dabbab7	0.083852224
43	0x3e259c77	0.16172968
44	0x3dbfb2f1	0.09360302
45	0x3f3361f8	0.70071363
46	0x3c0c2bce	0.008555366
47	0x3ea13dc8	0.31492448
48	0xbce4b7eb	-0.02791973
49	0xbcf8fa79	-0.030392872
50	0xbdf68465	-0.12036971
51	0xbdbc940a	-0.09207924
52	0xbe697ba4	-0.22801071
53	0x3e15ce34	0.14629441
54	0xbc0818ab	-0.008306663
55	0x3ec29967	0.38007662
56	0x3d85db28	0.06535941
57	0x3e16f384	0.14741331
58	0xbdfe2ed6	-0.12411277
59	0xbe47d9a2	-0.19516614
60	0xbea00d75	-0.31260267
61	0xbdd960b8	-0.10614151
62	0xbf03a766	-0.51427305
63	0xbe276af5	-0.16349395
64	0xbd3df5ac	-0.04637687
65	0xbd6ef9ad	-0.058343578
66	0x3e247671	0.16060807
67	0xbe1af017	-0.1513065
68	0xbe6c6345	-0.23084743
69	0xbf122e93	-0.57102317
70	0x3d13dbb8	0.036098212
71	0xbdbb6216	-0.09149568
72	0x3e2227f9	0.15835561
73	0x3d8fde24	0.07024792
74	0xbe21489e	-0.15750358
75	0xbe040215	-0.12891419
76	0x3e268a14	0.1626361
77	0x3e442673	0.19155292
78	0xbdbc0b0a	-0.09181793
79	0x3d3bcf3c	0.04585193
80	0x3d895b9d	0.06706927
81	0x3e2910d5	0.16510327
82	0xbddbeaba	-0.1073813
83	0x3e7001b1	0.23438145
84	0xbe0670e9	-0.1312901
85	0x3df353d7	0.118812256
86	0xbe9f208d	-0.31079522
87	0x3e305810	0.17221093
88	0x3dd50b0c	0.10402498
89	0x3c8148a1	0.015781702
90	0xba999ead	-0.0011720263
91	0xbd776ef0	-0.060408533
92	0x3e14c95e	0.1452994
93	0xbdc491c6	-0.095981166
94	0xbe5090bb	-0.2036771
95	0xbd4427a2	-0.04788936

rgb_trans.4.bias f4 [3]
0	0x3e95ebf6	0.29281586
1	0x3e5440a5	0.20727785
2	0x3eb3afde	0.35095114
